test_resources/example_logs/example_log/model_50.pth (torch_old, 39567 bytes, 66 tensors)

linear1.weight f4 [10, 50]
0.113641895 0.06644351 -0.15242472 -0.15136269 -0.24582522 0.24843644 0.013675129 0.07014569
-0.0027879085 -0.09075096 0.03631215 -0.08217693 -0.16840369 -0.19220562 -0.18182895 0.23395489
0.12132545 0.24457014 0.09450173 0.031561416 -0.06345756 -0.00033290862 -0.06441691 0.05162925
-0.17379999 0.023413913 0.2639596 0.00799907 -0.09227555 0.01901388 -0.020191874 -0.050076783
-0.24699123 -0.12989877 -0.42079997 -0.027953548 0.039905977 0.19992864 0.15725452 0.0792616
-0.046378624 -0.13620977 -0.16404377 -0.28908166 -0.26456353 0.14816712 0.21255064 0.06971643
0.10753313 -0.07337517 0.13305174 0.060861975 -0.1614167 -0.14447547 -0.06200052 0.02368355
0.18370886 -0.0040121754 -0.0961051 -0.14496137 -0.039854296 -0.08010006 -0.21914852 -0.12627128
-0.1271142 0.15662433 0.13181031 0.12248693 0.15020905 0.024120618 -0.047758866 -0.14808549
-0.11894962 -0.01722631 -0.026515145 0.20574167 0.1403503 -0.0049049538 0.12740184 0.030772297
-0.09171242 0.04585224 0.025246957 -0.22348206 -0.16905966 0.13697971 0.18066682 0.08642426
0.16973051 -0.08317597 -0.0139011415 -0.07699876 -0.063046545 -0.08814532 -0.20841086 0.15997231
0.19327073 0.09095686 0.051004242 0.020823332 0.052583996 0.09948142 -0.33281234 0.12279664
-0.07552492 0.109994255 -0.1736145 0.008548269 0.1104149 -0.102247104 -0.08186113 0.14420237
-0.018918753 0.15372969 0.4659954 -0.18725976 -0.2044535 -0.03699211 -0.12967911 0.05530717
-0.06563612 0.24309263 -0.088069096 -0.18627687 0.108455926 0.18905093 -0.11244886 0.28736177
-0.14780775 -0.0070083663 0.05316069 0.056600746 -0.37172154 0.25581688 0.09898841 -0.0575873
-0.092198 -0.001061129 0.06052164 -0.06412597 -0.00043989945 0.19106361 -0.31173974 -0.014843444
0.05446895 -0.036687657 0.28453112 0.18707478 -0.15138435 0.025856996 -0.12739055 -0.18233727
-0.3458707 -0.0064006043 -0.21019055 0.189753 0.20694175 -0.047608845 0.284874 0.057639446
-0.055132855 -0.05736215 -0.20148513 -0.24488367 0.1312872 0.19432612 -0.11940858 0.37195438
0.012645905 0.05019119 -0.12304759 -0.07038332 0.24708553 0.07434428 -0.032244354 0.33659205
0.10826675 0.18284464 0.032582007 -0.041957982 -0.0674198 -0.074505426 -0.09253873 0.021197861
-0.36439806 -0.064442195 -0.07583453 0.09540324 0.09420253 0.012196927 0.03489717 0.13533214
-0.26641637 -0.27447382 -0.1320229 -0.085319005 0.08390884 0.17396297 0.047945824 -0.04056534
-0.1060552 0.09566383 -0.210636 -0.3109649 -0.40406266 -0.037982725 0.0013958943 0.085496485
-0.020137006 0.15059297 -0.05249461 0.038066667 -0.3116095 -0.2673539 -0.077558674 -0.16100718
0.19537356 0.11995718 0.1687237 -0.015243025 0.021134695 0.16097939 -0.22938333 -0.124126546
0.07326907 0.08374801 -0.0140705425 -0.18068743 0.07073842 0.06615185 -0.020750528 0.15169853
-0.24079739 -0.20198952 -0.16949597 0.17840976 0.040528707 0.0859736 0.16922222 0.083412714
-0.07359174 -0.15201011 -0.1558012 -0.114010915 0.011925483 0.018249074 0.29318675 0.15027967
0.07400349 0.013104009 -0.25486907 -0.048771244 0.27275804 -0.44837976 0.2179756 -0.33314472
00000000: 15bd e83d 8913 883d 3a15 1cbe d2fe 1abe
00000010: 9bb9 7bbe 1f66 7e3e a60d 603c 8ba8 8f3d
00000020: 58b5 36bb a4db b9bd 0dbc 143d 614c a8bd
00000030: 0472 2cbe 8dd1 44be 5e31 3abe df91 6f3e
00000040: 7a79 f83d 9870 7a3e 1f8a c13d 8b46 013d
00000050: 0af6 81bd 3d8a aeb9 03ed 83bd 3179 533d
00000060: a0f8 31be 89ce bf3c b625 873e 880e 033c
00000070: f7fa bcbd ffc2 9b3c 6e69 a5bc 501d 4dbd
00000080: 45eb 7cbe 2f04 05be 1873 d7be d7fe e4bc
00000090: 7374 233d 18ba 4c3e 5407 213e e853 a23d
000000a0: 83f7 3dbd 937a 0bbe 17fb 27be 8302 94be
000000b0: df74 87be 1fb9 173e e0a6 593e 7dc7 8e3d
000000c0: 543a dc3d b945 96bd b73e 083e 684a 793d
000000d0: 6b4a 25be 61f1 13be 42f4 7dbd 0104 c23c
000000e0: 2d1e 3c3e 9178 83bb c0d2 c4bd c170 14be
000000f0: 423e 23bd 800b a4bd 7868 60be 424d 01be
00000100: 3a2a 02be 2162 203e 48f9 063e 6dda fa3d
00000110: 67d0 193e 9a98 c53c cd9e 43bd b9a3 17be
00000120: dc9b f3bd 311e 8dbc 4a36 d9bc f2ad 523e
00000130: fdb7 0f3e bcb9 a0bb a175 023e 2f16 fc3c
00000140: b9d3 bbbd 8fcf 3b3d b5d2 ce3c 7bd8 64be
00000150: fa1d 2dbe 6944 0c3e b900 393e 34ff b03d
00000160: d6cd 2d3e 2a58 aabd 9dc1 63bc 87b1 9dbd
00000170: 8c1e 81bd 8985 b4bd a869 55be c8cf 233e
00000180: c3e8 453e 9747 ba3d d3e9 503d b195 aa3c
00000190: 5162 573d eabc cb3d 6166 aabe ce7c fb3d
000001a0: cfac 9abd ab44 e13d 00c8 31be 0a0e 0c3c
000001b0: 3521 e23d ee66 d1bd cfa6 a7bd c9a9 133e
000001c0: 80fb 9abc 516b 1d3e f396 ee3e 06c1 3fbe
000001d0: 425c 51be 0a85 17bd 9aca 04be c589 623d
000001e0: 3b6c 86bd 46ed 783e 925d b4bd 5dbf 3ebe
000001f0: 241e de3d 9196 413e 974b e6bd 1521 933e
00000200: ea5a 17be 70a6 e5bb 06bf 593d 2fd6 673d
00000210: 4952 bebe 6efa 823e 6fba ca3d a9e0 6bbd
00000220: 4ed2 bcbd 9515 8bba 8ae5 773d 7a54 83bd
00000230: 4ea2 e6b9 2ea6 433e 5a9c 9fbe eb31 73bc
00000240: d51a 5f3d cc45 16bd 10ae 913e 8890 3f3e
00000250: 8004 1bbe 0dd2 d33c ab72 02be 9fb6 3abe
00000260: f715 b1be 29bc d1bb 313c 57be 9c4e 423e
00000270: 8ae8 533e 7e01 43bd 01db 913e 5717 6c3d
00000280: fdd2 61bd 93f4 6abd 1e52 4ebe c9c2 7abe
00000290: 2770 063e 6dfd 463e 7c8c f4bd ce70 be3e
000002a0: c530 4f3c 4795 4d3d 6000 fcbd 2125 90bd
000002b0: fd03 7d3e d041 983d a812 04bd cb55 ac3e
000002c0: f5ba dd3d a03b 3b3e b674 053d 22dc 2bbd
000002d0: 6413 8abd 4d96 98bd f284 bdbd 23a7 ad3c
000002e0: 6292 babe 45fa 83bd 224f 9bbd c662 c33d
000002f0: 42ed c03d 9fd5 473c 56f0 0e3d 8294 0a3e
00000300: ba67 88be d587 8cbe 0331 07be bbbb aebd
00000310: 66d8 ab3d 5923 323e d762 443d d827 26bd
00000320: 7833 d9bd 66eb c33d f7b0 57be cb36 9fbe
00000330: 4de1 cebe c693 1bbd 71f6 b63a c818 af3d
00000340: 5df6 a4bc 0b35 1a3e 9704 57bd cbeb 1b3d
00000350: 488b 9fbe 9ce2 88be 15d7 9ebd 11df 24be
00000360: 0210 483e 1cac f53d e8c5 2c3e e1bd 79bc
00000370: ab22 ad3c c8d7 243e 77e3 6abe 0f36 febd
00000380: 180e 963d 1484 ab3d 2288 66bc 2006 39be
00000390: 4edf 903d 9f7a 873d 03fd a9bc dc56 1b3e
000003a0: 9793 76be 57d6 4ebe 5a90 2dbe 0cb1 363e
000003b0: 6e01 263d ed12 b03d 9748 2d3e 49d4 aa3d
000003c0: 44b7 96bd 8aa8 1bbe 5a8a 1fbe 8e7e e9bd
000003d0: 1a63 433c 157f 953c 931c 963e eae2 193e
000003e0: 248f 973d 33b2 563c 337e 82be 5bc4 47bd
000003f0: f1a6 8b3e 0892 e5be ff34 5f3e f291 aabe

linear1.bias f4 [10]
0.07056393 0.2942086 0.12609841 -0.063107535 -0.31742138 0.093658894 -0.2006044 -0.16667823
-0.04595348 0.072663054
00000000: d283 903d 82a2 963e f11f 013e 863e 81bd
00000010: 0e85 a2be 3cd0 bf3d 3d6b 4dbe b3ad 2abe
00000020: b739 3cbd 5ed0 943d

linear2.weight f4 [10, 10]
0.001502341 0.28883106 0.8119879 -0.20231812 -0.09241894 0.32407907 -0.41398245 -0.03154012
0.099301934 0.11060319 0.1367997 -0.08397235 -1.279181 -0.052907277 -0.12541425 -0.34064013
0.44978845 -0.24151489 0.096518785 -0.100185014 0.41618034 0.41036034 0.25926274 -0.062302507
-0.39337686 0.20112988 -0.22490288 -0.25493664 0.059540916 0.22085233 -0.065166675 0.15788318
2.2750115 -0.15510815 0.16474316 0.61296964 -0.50072867 0.48601502 -0.077679396 0.3255332
-0.38927826 -0.2850592 0.7215652 -0.16554226 0.17185012 0.18863404 -0.08572822 -0.016921913
0.3260545 0.3265453 -0.32352966 -0.29598853 -0.51492095 0.32172522 -0.04581988 0.36473227
0.19137187 0.11368703 0.37304196 0.18883741 0.38290796 0.29549977 -0.07672687 0.019577013
-0.14501682 0.36459434 -0.05276817 -0.37512898 0.33399677 0.5102371 0.10261618 -0.31422448
-0.984914 0.28573993 0.16125055 -0.11526655 0.3105161 0.22210963 0.36727682 0.34802547
-0.073962264 -0.36179328 -0.6189937 0.4042288 0.30061382 0.3071067 -0.16226633 0.4984063
0.40535834 0.3471812 -0.25819984 -0.52808166 0.38041258 0.29385233 0.1315481 -0.41081986
0.24068038 0.0030237166 0.030085377 -0.24268074
00000000: 33ea c43a aae1 933e 70de 4f3f 7b2c 4fbe
00000010: 2446 bdbd b1ed a53e 82f5 d3be 3630 01bd
00000020: d05e cb3d ed83 e23d 3815 0c3e b2f9 abbd
00000030: 34bc a3bf 4db5 58bd 986c 00be 6268 aebe
00000040: ac4a e63e ae4f 77be a4ab c53d cd2d cdbd
00000050: 9715 d53e c01a d23e 16be 843e ea30 7fbd
00000060: b168 c9be fef4 4d3e f14c 66be 0e87 82be
00000070: 2de1 733d 1d27 623e 1b76 85bd 21ac 213e
00000080: ca99 1140 acd4 1ebe 6eb2 283e 94eb 1c3f
00000090: c12f 00bf f6d6 f83e 6016 9fbd 4aac a63e
000000a0: 7b4f c7be 48f3 91be 7fb8 383f e983 29be
000000b0: 7af9 2f3e 4829 413e 4792 afbd d39f 8abc
000000c0: 9ef0 a63e f230 a73e aea5 a5be cf8b 97be
000000d0: dcd1 03bf 2bb9 a43e a0ad 3bbd 30be ba3e
000000e0: fdf6 433e bfd4 e83d 5bff be3e 985e 413e
000000f0: 830c c43e bf4b 973e fa22 9dbd f95f a03c
00000100: 4a7f 14be 1cac ba3e 7023 58bd e810 c0be
00000110: a001 ab3e e69e 023f 6f28 d23d 08e2 a0be
00000120: 5323 7cbf 814c 923e dd1e 253e de10 ecbd
00000130: f7fb 9e3e b570 633e b50b bc3e 6530 b23e
00000140: 8779 97bd f83c b9be 5f76 1ebf 14f7 ce3e
00000150: 0eea 993e 173d 9d3e 2529 26be 1c2f ff3e
00000160: 218b cf3e bcc1 b13e c532 84be 5c30 07bf
00000170: 70c5 c23e d073 963e 8cb4 063e fb56 d2be
00000180: eb74 763e 8c29 463b 9c75 f63c 4d81 78be

linear2.bias f4 [10]
0.17514554 -0.34030187 0.39918703 0.111288995 -0.0075691766 0.059436105 0.24333027 0.109746896
0.3229016 0.27697784
00000000: 5a59 333e 0c3c aebe 3e62 cc3e 7ceb e33d
00000010: db06 f8bb 4673 733d 922b 793e fbc2 e03d
00000020: 5c53 a53e 0ad0 8d3e

linear3.weight f4 [10, 10]
-0.24532926 0.40038106 0.16461076 -0.33159867 -0.091608256 -0.041657083 0.43265256 0.09857778
-0.21372902 0.17583081 -0.036489174 0.10175147 -0.011372092 -0.077609524 0.55770206 0.016471881
-0.33843622 -0.15301947 -0.13322195 0.49235913 0.04561441 -0.133439 0.1677042 0.058116447
-0.64798695 0.48403955 -0.15346722 0.03676233 -0.30811515 -0.089168675 0.44378653 -0.34203506
0.40989724 0.020555204 -0.7213889 -0.0040740706 0.20686492 0.1825205 -0.031005386 -0.7079454
-0.044390433 -0.099506594 0.2606596 -0.20398657 -0.2740708 0.25921187 -0.11199049 0.16438371
-0.153155 0.047408532 -0.55780125 -0.00721513 -0.2028898 0.13784003 0.5813474 0.34947574
0.055471227 0.14444593 0.33231556 0.46212357 0.07024306 -0.18669616 -0.090672076 0.18697879
0.5660588 0.25854278 -0.15218063 -0.1459569 0.22200927 0.609935 0.38594362 -0.30766118
0.3470514 0.5652482 -0.43814287 -0.26343504 0.3929862 -0.35096434 0.08425341 -0.7249184
-0.2812465 0.11804046 -0.4279117 0.17077498 0.26953295 0.078985386 0.15049067 0.43752545
-0.025275348 0.79602915 -0.022786759 -0.17050616 -0.20795058 -0.26295233 -0.008877003 -0.13309075
-0.078075625 -0.011565832 0.14726405 0.08541215
00000000: 9837 7bbe bffe cc3e b98f 283e 4dc7 a9be
00000010: 1c9d bbbd 9ea0 2abd a384 dd3e 26e3 c93d
00000020: c8db 5abe fe0c 343e ac75 15bd 1363 d03d
00000030: 0352 3abc bef1 9ebd 90c5 0e3f 0af0 863c
00000040: 8347 adbe 23b1 1cbe 566b 08be 7f16 fc3e
00000050: 2dd6 3a3d 3ca4 08be a6ba 2b3e 830b 6e3d
00000060: 79e2 25bf 08d4 f73e 8326 1dbe 1994 163d
00000070: 45c1 9dbe 119e b6bd fd37 e33e 381f afbe
00000080: 0dde d13e 6363 a83c f1ac 38bf c87f 85bb
00000090: 66d4 533e a7e6 3a3e 02ff fdbc e93b 35bf
000000a0: bed2 35bd 1dca cbbd 2d75 853e dbe1 50be
000000b0: 0253 8cbe 6bb7 843e 455b e5bd 3454 283e
000000c0: aad4 1cbe 732f 423d 10cc 0ebf e66c ecbb
000000d0: 58c2 4fbe f025 0d3e 2fd3 143f 7cee b23e
000000e0: cc35 633d a2e9 133e 4425 aa3e 769b ec3e
000000f0: 98db 8f3d 472d 3fbe 48b2 b9bd 5e77 3f3e
00000100: 3be9 103f b85f 843e 3dd5 1bbe ba75 15be
00000110: 6656 633e b324 1c3f 679a c53e c485 9dbe
00000120: b9b0 b13e 1bb4 103f 4354 e0be f5e0 86be
00000130: 7d35 c93e 99b1 b3be 0d8d ac3d 4194 39bf
00000140: 8bff 8fbe 32bf f13d 3e17 dbbe a3df 2e3e
00000150: 3900 8a3e 17c3 a13d 3a1a 1a3e 5603 e03e
00000160: 3f0e cfbc 91c8 4b3f 4cab babc 2b99 2ebe
00000170: fff0 54be b0a1 86be d970 11bc f148 08be
00000180: 1de6 9fbd 9e7e 3dbc 63cc 163e 91ec ae3d

linear3.bias f4 [10]
0.25035012 -0.16128434 -0.07932554 -0.043847274 -0.27889842 0.14687218 0.25524676 -0.12770717
0.3028418 -0.2730278
00000000: e42d 803e b927 25be 6e75 a2bd 3399 33bd
00000010: c6cb 8ebe a965 163e b4af 823e abc5 02be
00000020: 150e 9b3e 4dca 8bbe

linear4.weight f4 [1, 10]
-0.49076405 0.21168654 -0.80576795 -0.28032163 -0.19051844 0.43453783 0.09112715 -0.48920295
0.25330845 -0.11499009
00000000: 6d45 fbbe 5bc4 583e cf46 4ebf 5186 8fbe
00000010: 4417 43be be7b de3e dfa0 ba3d cf78 fabe
00000020: a5b1 813e ed7f ebbd

exp_avg f4 [10, 50]
0.00092878204 0.000692054 0.00044646082 0.00025026948 9.099459e-05 -7.5409225e-05 -0.00024603595 -0.00041083153
-0.00060088147 -0.00086348597 0.0007116622 0.0005578514 0.0004027481 0.00022871683 8.657857e-05 -7.950129e-05
-0.00025341308 -0.00047692412 -0.0007633308 -0.001145951 0.000924563 0.0006589467 0.00043050328 0.00025688356
7.236355e-05 -9.498516e-05 -0.00025072607 -0.00043777522 -0.0006646723 -0.00094783807 0.0007363542 0.0005505328
0.0003956837 0.00023276891 8.389156e-05 -8.9857844e-05 -0.0002488301 -0.0004384301 -0.00062457717 -0.00083024084
0.0011853682 0.0007883553 0.0005087386 0.0002691116 8.65909e-05 -8.111189e-05 -0.00022724974 -0.00034789921
-0.00044006685 -0.0005035691 0.0012421975 0.0008975454 0.00056770863 0.00031293673 0.00010797424 -9.262234e-05
-0.00029546165 -0.0004883891 -0.0007052348 -0.0009933952 0.00090098835 0.0006966176 0.00049903116 0.0002812447
0.00010291986 -9.824544e-05 -0.00030892482 -0.00057714555 -0.00091811747 -0.0013812558 0.0011996741 0.00084104255
0.00054307614 0.0003182475 9.2200375e-05 -0.00011211557 -0.0003037865 -0.00052406144 -0.00078003964 -0.0010874848
0.0009213206 0.00068920094 0.0004900511 0.00028711648 0.00010353209 -0.00010886143 -0.00030346075 -0.00053381023
-0.0007631244 -0.0010300841 0.0014284855 0.000959527 0.00062179874 0.00033287457 0.0001051108 -0.000101434955
-0.00027833533 -0.00043207026 -0.0005556152 -0.0006632379 0.0003560109 0.00022289487 0.00014150098 7.542199e-05
1.6201655e-05 -2.7474589e-05 -5.3595995e-05 -7.112824e-05 -3.8894756e-05 6.040661e-05 0.0004733863 0.00030547022
0.0001837133 7.891743e-05 1.6639968e-05 -1.7837705e-05 -4.7104262e-05 -6.14275e-05 -5.8514343e-05 -2.2095986e-05
0.00013536093 0.00012761203 0.00011688708 6.7112596e-05 3.2618784e-05 -1.9093268e-05 -5.8036112e-05 -5.963379e-05
-3.3613032e-05 6.095895e-05 0.00019101566 0.0001762322 0.00014162138 7.73244e-05 1.8599576e-05 -1.4938261e-05
-5.7912996e-05 -7.6117445e-05 -9.123739e-05 -0.00013654887 0.00013473845 0.00011813791 9.30195e-05 6.386084e-05
2.0603246e-05 -1.9443365e-05 -6.709873e-05 -0.00011105737 -0.000116621006 -0.00010782283 -0.0003851337 -0.00026161733
-0.0001580269 -8.264656e-05 -2.7117349e-05 2.5907319e-05 7.606464e-05 0.00012691591 0.00018921663 0.00027164948
-0.00024400224 -0.00018497386 -0.00013411579 -7.619611e-05 -2.5320955e-05 2.5185682e-05 7.6832905e-05 0.00014154859
0.00021725449 0.00033407437 -0.0003148472 -0.00022588657 -0.00014747563 -8.329933e-05 -2.705007e-05 2.659897e-05
7.539814e-05 0.000129663 0.00018341334 0.0002479119 -0.00023564602 -0.00018720509 -0.00013217704 -7.76795e-05
-2.866662e-05 2.6041931e-05 7.629918e-05 0.00013396305 0.00020367137 0.00029774822 -0.00035840954 -0.00024228956
-0.00015631874 -8.4730105e-05 -2.6601769e-05 2.6059437e-05 7.4554395e-05 0.000121654 0.00017177276 0.00023165705
-0.00062267727 -0.0004645857 -0.00030116554 -0.00016747575 -6.1275285e-05 5.0623297e-05 0.00016668421 0.0002794104
0.0004159921 0.00060703134 -0.0004981564 -0.0003847997 -0.00027698526 -0.00015549606 -5.8316033e-05 5.327176e-05
0.00017014479 0.00031974056 0.0005101567 0.0007714336 -0.00061267294 -0.00044289767 -0.00029279018 -0.00017293888
-5.0365645e-05 6.117006e-05 0.00016714189 0.0002892285 0.00043037825 0.0006094138 -0.00047530423 -0.00036115403
-0.0002618132 -0.00015291678 -5.666758e-05 6.0393562e-05 0.00017235773 0.0003092602 0.00046140747 0.00064612407
-0.0008518783 -0.00055404514 -0.00035250204 -0.00018207564 -5.7817684e-05 5.359611e-05 0.00015393714 0.0002356345
0.00030123108 0.0003483445 0.0002266046 0.0001446767 8.476947e-05 4.2587755e-05 9.122529e-06 -1.1533736e-05
00000000: 8279 733a f56a 353a f512 ea39 9a36 8339
00000010: 59d4 be38 0525 9eb8 63fe 80b9 e064 d7b9
00000020: 7984 1dba 905b 62ba d78e 3a3a c63c 123a
00000030: ef27 d339 b5d3 6f39 8491 b538 eeb9 a6b8
00000040: 87dc 84b9 ac0b fab9 431a 48ba bc33 96ba
00000050: 5f5e 723a 2abd 2c3a 2cb5 e139 54ae 8639
00000060: e3c1 9738 c532 c7b8 e273 83b9 3285 e5b9
00000070: 673d 2eba 5678 78ba e507 413a a151 103a
00000080: c473 cf39 6e13 7439 f0ee af38 1072 bcb8
00000090: 6975 82b9 18dd e5b9 aaba 23ba 85a4 59ba
000000a0: 5b5e 9b3a a1a9 4e3a df5c 053a 8c17 8d39
000000b0: 2398 b538 9d1a aab8 e349 6eb9 3e66 b6b9
000000c0: c6b8 e6b9 f301 04ba 3bd1 a23a 4149 6b3a
000000d0: 48d2 143a a811 a439 3b70 e238 3d3e c2b8
000000e0: 31e8 9ab9 3d07 00ba 82df 38ba d034 82ba
000000f0: 4e30 6c3a 379d 363a 6ad1 023a 0674 9339
00000100: aed6 d738 1e09 ceb8 30f7 a1b9 954b 17ba
00000110: d2ad 70ba 410b b5ba 623e 9d3a 6979 5c3a
00000120: 395d 0e3a 75da a639 b35b c138 971f ebb8
00000130: 8945 9fb9 2b61 09ba 937b 4cba ef89 8eba
00000140: c784 713a 7eab 343a c676 003a 1f88 9639
00000150: 5e1f d938 894c e4b8 d019 9fb9 66ef 0bba
00000160: 690c 48ba e303 87ba 053c bb3a c488 7b3a
00000170: 3500 233a ab85 ae39 ee6e dc38 7ab9 d4b8
00000180: 89ed 91b9 7d87 e2b9 b4a6 11ba 24dd 2dba
00000190: f9a6 ba39 e3b8 6939 e15f 1439 df2b 9e38
000001a0: cae8 8737 3b79 e6b7 43cc 60b8 af2a 95b8
000001b0: ed22 23b8 1b5d 7d38 d530 f839 8527 a039
000001c0: 2aa3 4039 7980 a538 0f96 8b37 2ea2 95b7
000001d0: d191 45b8 a3d2 80b8 4c6d 75b8 c55a b9b7
000001e0: acef 0d39 98cf 0539 4621 f538 cdbe 8c38
000001f0: 27d0 0838 7b2a a0b7 cd6b 73b8 4b1f 7ab8
00000200: b8fb 0cb8 2dae 7f38 604b 4839 f9ca 3839
00000210: 3380 1439 3929 a238 4906 9c37 589f 7ab7
00000220: 9be7 72b8 3ea1 9fb8 b356 bfb8 8f2e 0fb9
00000230: 9448 0d39 cfc0 f738 7713 c338 07ed 8538
00000240: 22d5 ac37 4f1a a3b7 5bb7 8cb8 79e7 e8b8
00000250: 6d92 f4b8 f11e e2b8 c5eb c9b9 af29 89b9
00000260: 06b4 25b9 8952 adb8 107a e3b7 8b53 d937
00000270: e584 9f38 bb14 0539 7468 4639 2d6c 8e39
00000280: dada 7fb9 8bf5 41b9 6fa1 0cb9 7acb 9fb8
00000290: 5668 d4b7 d745 d337 5a21 a138 a96c 1439
000002a0: cfce 6339 b426 af39 1312 a5b9 f7db 6cb9
000002b0: b0a3 1ab9 fdb0 aeb8 95e9 e2b7 da20 df37
000002c0: 111f 9e38 26f6 0739 a552 4039 2cfa 8139
000002d0: bf17 77b9 7c4c 44b9 0199 0ab9 dde7 a2b8
000002e0: 1979 f0b7 9f74 da37 cf02 a038 6f78 0c39
000002f0: 9e90 5539 171b 9c39 eae8 bbb9 1c0f 7eb9
00000300: 7ee9 23b9 21b1 b1b8 dd26 dfb7 379a da37
00000310: 165a 9c38 7e20 ff38 e61d 3439 f7e8 7239
00000320: 2a3b 23ba a393 f3b9 c1e5 9db9 6e9c 2fb9
00000330: eb80 80b8 5a54 5438 f4c7 2e39 d47d 9239
00000340: 8419 da39 2f21 1f3a b696 02ba f1be c9b9
00000350: 5538 91b9 a80c 23b9 5d98 74b8 1e70 5f38
00000360: e568 3239 daa2 a739 09bc 053a 083a 4a3a
00000370: c99b 20ba b834 e8b9 a281 99b9 ed56 35b9
00000380: b33f 53b8 6d48 8038 cf42 2f39 98a3 9739
00000390: 64a4 e139 11c1 1f3a 4132 f9b9 4659 bdb9
000003a0: f943 89b9 4958 20b9 5aae 6db8 184f 7d38
000003b0: edba 3439 3424 a239 10e9 f139 a760 293a
000003c0: 9650 5fba 573d 11ba 06d0 b8b9 8feb 3eb9
000003d0: 4481 72b8 63cc 6038 306a 2139 a814 7739
000003e0: 8dee 9d39 02a2 b639 b69c 6d39 5bb4 1739
000003f0: 43c6 b138 41a0 3238 f70c 1937 0581 41b7

exp_avg_sq f4 [10, 50]
4.02212e-05 2.2152732e-05 9.470137e-06 3.2614023e-06 3.7496355e-07 3.2634017e-07 3.2904038e-06 1.0208377e-05
2.3523618e-05 5.083983e-05 2.685035e-05 1.6618173e-05 8.746166e-06 2.96258e-06 3.6657832e-07 3.2413163e-07
3.4176142e-06 1.1213711e-05 2.828944e-05 6.426119e-05 4.7405403e-05 2.3587152e-05 1.0197881e-05 3.3660504e-06
3.061022e-07 4.1457616e-07 3.3759263e-06 1.0291062e-05 2.437059e-05 5.019543e-05 3.8508868e-05 1.9549225e-05
9.063241e-06 3.0769625e-06 3.8054634e-07 3.549336e-07 3.2220082e-06 9.788725e-06 2.0267093e-05 3.6597085e-05
5.679343e-05 2.6799076e-05 1.1462509e-05 3.5306539e-06 3.4892366e-07 3.707697e-07 2.9976854e-06 7.832278e-06
1.4132189e-05 2.1938109e-05 7.28655e-05 3.8947783e-05 1.627573e-05 5.4917587e-06 6.36038e-07 5.3310316e-07
5.4506795e-06 1.6919626e-05 3.9097336e-05 8.4331296e-05 4.6165263e-05 2.8057093e-05 1.4614472e-05 4.930702e-06
6.0697164e-07 5.401645e-07 5.6696035e-06 1.8512532e-05 4.6423575e-05 0.000104214276 8.3611354e-05 4.05664e-05
1.721445e-05 5.6203053e-06 5.228697e-07 6.773209e-07 5.5823593e-06 1.6886457e-05 3.923993e-05 7.8700206e-05
6.408102e-05 3.2695698e-05 1.5154809e-05 5.144145e-06 6.3996885e-07 5.8633196e-07 5.306241e-06 1.5988826e-05
3.2724452e-05 5.838659e-05 8.650952e-05 4.203637e-05 1.8449924e-05 5.788565e-06 5.7104313e-07 6.1847084e-07
5.0835206e-06 1.3601882e-05 2.5390586e-05 4.188404e-05 4.0043615e-06 1.9440938e-06 8.826317e-07 2.6427531e-07
2.9312718e-08 2.3395977e-08 1.5644373e-07 2.430287e-07 1.4020839e-07 3.3964872e-07 9.466595e-06 3.597587e-06
1.324097e-06 3.1954292e-07 1.9757834e-08 2.2055449e-08 1.724288e-07 3.4775627e-07 4.393551e-07 5.0712987e-07
3.3427555e-06 1.3751096e-06 6.285272e-07 2.2372053e-07 2.648173e-08 2.9245026e-08 2.5078242e-07 6.3326144e-07
8.878776e-07 6.982744e-07 2.289616e-06 1.4198382e-06 8.017763e-07 2.6074252e-07 2.7864877e-08 1.9613063e-08
1.8034312e-07 3.775919e-07 4.96e-07 4.1220753e-07 2.5592345e-07 1.9141072e-07 2.923641e-07 1.7709955e-07
2.4453739e-08 3.4118408e-08 2.9775887e-07 8.3892843e-07 1.5819058e-06 3.0771228e-06 6.5627237e-06 3.4434995e-06
1.4433773e-06 4.8534827e-07 5.869228e-08 4.786971e-08 4.9097457e-07 1.5040846e-06 3.3945068e-06 7.0124092e-06
4.355621e-06 2.5637148e-06 1.3168583e-06 4.4724325e-07 5.3556118e-08 5.0487444e-08 5.054157e-07 1.6116502e-06
3.856229e-06 8.23647e-06 8.05885e-06 3.7738732e-06 1.5738345e-06 5.047568e-07 4.996424e-08 5.9243327e-08
4.8836336e-07 1.4406966e-06 3.1222253e-06 5.7008897e-06 5.539533e-06 2.8835143e-06 1.3524369e-06 4.5502165e-07
5.747603e-08 5.1486204e-08 4.804066e-07 1.4452787e-06 2.9944765e-06 5.365016e-06 6.829226e-06 3.4682046e-06
1.575311e-06 5.14167e-07 5.1458603e-08 5.640531e-08 4.6574993e-07 1.2632388e-06 2.3943128e-06 4.067157e-06
1.8779876e-05 1.0430397e-05 4.5068223e-06 1.5517913e-06 1.8169551e-07 1.5538126e-07 1.5834097e-06 4.898048e-06
1.12366315e-05 2.411293e-05 1.3451819e-05 8.153681e-06 4.2591473e-06 1.431992e-06 1.7731824e-07 1.5832617e-07
1.6345815e-06 5.3306985e-06 1.3341913e-05 2.995868e-05 2.3101906e-05 1.1423475e-05 4.930704e-06 1.6115662e-06
1.5042782e-07 1.9502221e-07 1.6243731e-06 4.956394e-06 1.1682214e-05 2.3972512e-05 1.7932509e-05 9.2068985e-06
4.306073e-06 1.4602329e-06 1.8454627e-07 1.6887788e-07 1.5726463e-06 4.8048555e-06 1.0102771e-05 1.8616749e-05
2.6994547e-05 1.2743042e-05 5.4599236e-06 1.6918004e-06 1.6553828e-07 1.7725623e-07 1.4614423e-06 3.8198086e-06
6.9611797e-06 1.0899792e-05 2.905458e-06 1.366885e-06 5.236869e-07 1.6343246e-07 1.9746675e-08 1.4631235e-08
00000000: 2fb3 2838 a1d4 b937 eee1 1e37 77de 5a36
00000010: 994e c934 da33 af34 b5d0 5c36 a544 2b37
00000020: 9654 c537 da3c 5538 b03c e137 4167 8b37
00000030: 7fbc 1237 bdd0 4636 24ce c434 5004 ae34
00000040: 2a5a 6536 8622 3c37 1c4f ed37 f7c3 8638
00000050: 2ad5 4638 06dd c537 9117 2b37 4ee4 6136
00000060: 5e56 a434 ea92 de34 f98d 6236 c6a7 2c37
00000070: 726f cc37 ef88 5238 9584 2138 a4fd a337
00000080: 530e 1837 d07d 4e36 e44d cc34 b48d be34
00000090: ae39 5836 413a 2437 4003 aa37 d27f 1938
000000a0: 7b35 6e38 94ce e037 1a4f 4037 2cf0 6c36
000000b0: b453 bb34 330e c734 d82b 4936 6167 0337
000000c0: 4a19 6d37 bb07 b837 5ecf 9838 dd5b 2338
000000d0: dd87 8837 d945 b836 33bc 2a35 921a 0f35
000000e0: fbe4 b636 9fee 8d37 72fc 2338 05db b038
000000f0: 93a1 4138 265c eb37 ae30 7537 6872 a536
00000100: c6ee 2235 d2ff 1035 863d be36 5c4b 9b37
00000110: efb6 4238 9d8d da38 8158 af38 d725 2a38
00000120: c067 9037 0e96 bc36 555b 0c35 23d1 3535
00000130: 1a50 bb36 64a7 8d37 8e95 2438 da0b a538
00000140: 3c63 8638 bd22 0938 6941 7e37 de9b ac36
00000150: 53ca 2b35 6d64 1d35 430c b236 be1f 8637
00000160: 9d41 0938 20e4 7438 726c b538 3550 3038
00000170: e9c4 9a37 653b c236 c949 1935 fe04 2635
00000180: 1c93 aa36 a333 6437 defd d437 a5ac 2f38
00000190: 345d 8636 4777 0236 fded 6c35 b9e1 8d34
000001a0: 59cb fb32 4cf8 c832 edfa 2734 9c79 8234
000001b0: 308c 1634 f758 b634 b7d2 1e37 136e 7136
000001c0: a0b7 b135 a58d ab34 f0b7 a932 7274 bd32
000001d0: de24 3934 42b3 ba34 81e0 eb34 b321 0835
000001e0: 1a54 6036 6890 b835 0fb8 2835 d537 7034
000001f0: f179 e332 7e36 fb32 46a3 8634 65fd 2935
00000200: 7c56 6e35 0d71 3b35 4ea7 1936 4591 be35
00000210: a639 5735 2efc 8b34 835b ef32 9579 a832
00000220: 57a4 4134 d6b7 ca34 dc24 0535 5f4d dd34
00000230: da65 8934 9486 4d34 37f6 9c34 c128 3e34
00000240: 570e d232 9689 1233 abdb 9f34 b932 6135
00000250: df51 d435 9180 4e36 5e35 dc36 df16 6736
00000260: 11ba c135 e148 0235 d814 7c33 4e99 4d33
00000270: 84cb 0335 f4df c935 2fcd 6336 234c eb36
00000280: 8026 9236 490c 2c36 e8be b035 a51c f034
00000290: 9305 6633 88d7 5833 e7ab 0735 e14f d835
000002a0: c164 8136 5f2f 0a37 7f34 0737 a642 7d36
000002b0: 8b3c d335 a07e 0735 4398 5633 ba72 7e33
000002c0: 1318 0335 f55d c135 6c87 5136 454a bf36
000002d0: 3ae0 b936 6682 4136 6185 b535 b349 f434
000002e0: 90db 7633 ae21 5d33 4af5 0035 66fb c135
000002f0: b7f4 4836 2305 b436 9b26 e536 4dbf 6836
00000300: 466f d335 4a05 0a35 5503 5d33 4b42 7233
00000310: 2f0c fa34 8e8c a935 fbad 2036 9d78 8836
00000320: 7a89 9d37 37fe 2e37 4f39 9736 2547 d035
00000330: 1518 4334 e0d6 2634 8b85 d435 e959 a436
00000340: f784 3c37 1f46 ca37 1faf 6137 cbcb 0837
00000350: cce9 8e36 df32 c035 de64 3e34 5e00 2a34
00000360: cb63 db35 5ade b236 14d7 5f37 c74f fb37
00000370: f7ca c137 74a7 3f37 6d72 a536 fe4c d835
00000380: 4985 2134 4c67 5134 0905 da35 1a4f a636
00000390: bafe 4337 9418 c937 c56d 9637 5477 1a37
000003a0: e37c 9036 38fd c335 b127 4634 cc54 3534
000003b0: b713 d335 6539 a136 127f 2937 2a2b 9c37
000003c0: 5972 e237 f3ca 5537 6334 b736 d211 e335
000003d0: d1be 3134 d253 3e34 c626 c435 e82b 8036
000003e0: 1494 e936 40de 3637 63fb 4236 d075 b735
000003f0: 7d93 0c35 f97b 2f34 669f a932 da5c 7b32

exp_avg f4 [10]
-0.0007252432 -0.0008895456 -0.00021015658 0.00022890509 0.0004896425 -0.00011114426 0.00034431735 0.0004257216
0.0003283677 0.00010281634
00000000: 3f1e 3eba 6530 69ba 7a5d 5cb9 3e06 7039
00000010: 5a5b 003a 1f16 e9b8 7e85 b439 6333 df39
00000020: c428 ac39 1a9f d738

exp_avg_sq f4 [10]
2.7489801e-05 4.574815e-05 2.1942212e-06 4.1405046e-06 1.324834e-05 1.3251267e-06 9.722452e-06 9.137875e-06
5.996974e-06 3.597075e-07
00000000: e699 e637 b4e1 3f38 6f40 1336 aaee 8a36
00000010: 3045 5e37 02db b135 9d1d 2337 e04e 1937
00000020: 9d39 c936 d31d c134

exp_avg f4 [10, 10]
-0.0008891315 -0.00084094354 -2.48674e-05 -0.001063726 -0.0008933914 -0.0014089914 -0.0007208867 -0.0007969924
-0.001471893 -0.00085551164 1.3885291e-06 1.5419162e-06 4.8249387e-08 2.1842961e-06 1.3923367e-06 2.3922778e-06
1.2901365e-06 1.7089887e-06 2.5170436e-06 1.8212983e-06 -0.0010005431 -0.0009175695 -2.7213586e-05 -0.001123494
-0.0009885118 -0.0015548114 -0.00078909873 -0.0008346306 -0.0016188469 -0.00089206954 -2.1442063e-05 -4.1291307e-05
-1.571363e-06 -7.692852e-05 -2.5606027e-05 -5.2337673e-05 -3.2544976e-05 -6.309003e-05 -5.778835e-05 -6.945598e-05
0.0015147257 0.001455923 3.948009e-05 0.0017181507 0.0014771794 0.0023371093 0.0011698911 0.0012867156
0.0025229105 0.0013487918 0.00052775507 0.00049015076 9.7615e-06 0.00064565364 0.0005726219 0.0008727839
0.00043565338 0.00046578658 0.0009129186 0.0005061229 -0.0006847745 -0.00060844066 -1.811676e-05 -0.0007298473
-0.00068533805 -0.0010474646 -0.00052537385 -0.0005331986 -0.0010926207 -0.000577476 0.00040877052 0.00038652806
1.1451133e-05 0.0004905066 0.0004156283 0.0006467289 0.0003301716 0.00036560313 0.0006773499 0.0003966492
0.00041829894 0.00037317933 1.08369095e-05 0.00043774198 0.00039635503 0.0006400539 0.00032343084 0.00032560682
0.0006601307 0.00033811043 2.527108e-05 2.1651575e-05 3.2470975e-06 5.0246264e-05 3.1585496e-05 2.9953602e-05
1.7967084e-05 3.4251727e-05 4.254518e-05 5.2266856e-05
00000000: 9b14 69ba c472 5cba 569a d0b7 b96c 8bba
00000010: 7b32 6aba e8ad b8ba e3f9 3cba 41ed 50ba
00000020: 89ec c0ba 6a44 60ba 7f5d ba35 d6f3 ce35
00000030: c33a 4f33 ec95 1236 53e0 ba35 058b 2036
00000040: c128 ad35 6860 e535 7bea 2836 5573 f435
00000050: a824 83ba 0c89 70ba bb48 e4b7 3442 93ba
00000060: f490 81ba d0ca cbba 85db 4eba 1dcb 5aba
00000070: 7d2f d4ba c6d9 69ba 7bde b3b7 3430 2db8
00000080: 9fe7 d2b5 af54 a1b8 86cc d6b7 2685 5bb8
00000090: e780 08b8 344f 84b8 c561 72b8 e5a8 91b8
000000a0: c389 c63a abd4 be3a 6d97 2538 9233 e13a
000000b0: ea9d c13a 302a 193b 0857 993a 03a7 a83a
000000c0: 6a57 253b f1c9 b03a 0b59 0a3a 767d 003a
000000d0: 53c5 2337 1541 293a 011c 163a 89cb 643a
000000e0: 6868 e439 d134 f439 ee50 6f3a 55ad 043a
000000f0: 7082 33ba c37f 1fba 72f9 97b7 3953 3fba
00000100: 42a8 33ba 144b 89ba 3eb9 09ba 5ac6 0bba
00000110: 4436 8fba c261 17ba 4050 d639 eba6 ca39
00000120: 3e1e 4037 5795 003a b0e8 d939 3e89 293a
00000130: e21a ad39 6cae bf39 2f90 313a 5bf5 cf39
00000140: 224f db39 48a7 c339 2cd0 3537 bc80 e539
00000150: dfcd cf39 4ac9 273a 2792 a939 35b6 aa39
00000160: 9f0c 2d3a 6a44 b139 3bfd d337 67a0 b537
00000170: b6e8 5936 84bf 5238 ab7a 0438 df44 fb37
00000180: 05b8 9637 83a9 0f38 8a72 3238 1c39 5b38

exp_avg_sq f4 [10, 10]
5.505492e-05 4.8403122e-05 2.1051394e-08 8.017947e-05 5.7379635e-05 0.00014368008 3.521961e-05 4.2918124e-05
0.0001553245 5.0910734e-05 2.887663e-10 2.4530494e-10 6.8874885e-14 6.361569e-10 4.12043e-10 1.0129722e-09
2.515802e-10 3.1620764e-10 1.0018119e-09 4.0197362e-10 5.758932e-05 5.1090086e-05 2.4603862e-08 7.4037365e-05
5.431591e-05 0.00013776138 3.380262e-05 4.0606046e-05 0.00015295908 4.6947764e-05 4.893228e-07 3.9529075e-07
5.535321e-11 1.6032614e-06 9.718766e-07 2.3158875e-06 5.80767e-07 7.4619516e-07 2.1207911e-06 1.007178e-06
0.00010340621 8.996195e-05 2.95898e-08 0.00015267715 0.000114269096 0.0002858433 6.8398294e-05 7.904233e-05
0.0003089173 9.357571e-05 2.0689891e-05 1.818509e-05 7.8223845e-09 2.7909009e-05 2.0570815e-05 5.1095445e-05
1.2460159e-05 1.511789e-05 5.647563e-05 1.7707334e-05 2.3134224e-05 2.0687849e-05 1.1173771e-08 2.5198653e-05
1.9464182e-05 4.9457394e-05 1.208638e-05 1.4276519e-05 5.7080782e-05 1.5998428e-05 1.154531e-05 1.0149757e-05
4.490445e-09 1.6799808e-05 1.2027528e-05 2.9980074e-05 7.355647e-06 8.975284e-06 3.247763e-05 1.0693506e-05
7.971421e-06 7.1565687e-06 3.78354e-09 8.917392e-06 6.680945e-06 1.7440383e-05 4.2916035e-06 5.04164e-06
1.9887842e-05 5.592412e-06 3.150783e-08 3.2900093e-08 3.4403194e-10 1.7708818e-07 7.510718e-08 8.7975955e-08
2.7820981e-08 6.5289534e-08 1.293752e-07 1.3870282e-07
00000000: c5ea 6638 7504 4b38 81d4 b432 0626 a838
00000010: eaaa 7038 d4a8 1639 c5b8 1338 fc02 3438
00000020: 9ade 2239 fc88 5538 3ec0 9e2f 9adb 862f
00000030: ab17 9b29 90dd 2e30 e685 e22f ca38 8b30
00000040: c44e 8a2f 45d6 ad2f 1fb0 8930 c2fc dc2f
00000050: 108c 7138 9049 5638 7758 d332 8244 9b38
00000060: 44d1 6338 0a74 1039 49c7 0d38 6950 2a38
00000070: a463 2039 c7e9 4438 025a 0335 5938 d434
00000080: 2d72 732e a42f d735 6d71 8235 a56a 1b36
00000090: 01e6 1b35 244e 4835 ea52 0e36 5f2e 8735
000000a0: c9db d838 f4a9 bc38 a92c fe32 f617 2039
000000b0: c1a3 ef38 3ddd 9539 0e71 8f38 87c3 a538
000000c0: 2ef6 a139 143e c438 348f ad37 2f8c 9837
000000d0: 3663 0632 241e ea37 7d8f ac37 514f 5638
000000e0: fa0b 5137 d8a2 7d37 3fe0 6c38 368a 9437
000000f0: 5e10 c237 d18a ad37 c4f6 3f32 b261 d337
00000100: 0347 a337 7970 4f38 9bc6 4a37 2f85 6f37
00000110: 066a 6f38 5d34 8637 bbb2 4137 e048 2a37
00000120: 5f4a 9a31 50ed 8c37 d7c9 4937 b87d fb37
00000130: 87d0 f636 8d94 1637 9738 0838 4268 3337
00000140: febc 0537 7522 f036 5f00 8231 e89b 1537
00000150: e12c e036 f04c 9237 9800 9036 5c2b a936
00000160: d1d4 a637 74a6 bb36 3a53 0733 094e 0d33
00000170: 3122 bd2f a125 3e34 9c4a a133 4bed bc33
00000180: fcfa ee32 4d35 8c33 62ea 0a34 57ee 1434

exp_avg f4 [10]
-0.00045995312 8.3249745e-07 -0.00050293066 -2.299868e-05 0.0007718036 0.0002700802 -0.00033657145 0.00021200068
0.0002033284 1.9792658e-05
00000000: dd25 f1b9 ca78 5f35 1bd7 03ba 4aed c0b7
00000010: dd52 4a3a 8d99 8d39 db75 b0b9 804c 5e39
00000020: 8d34 5539 6908 a637

exp_avg_sq f4 [10]
1.4976235e-05 9.5545474e-11 1.4862147e-05 1.9883613e-07 2.8082773e-05 5.4056927e-06 5.5570827e-06 3.1480815e-06
1.9451643e-06 3.107675e-08
00000000: 7142 7b37 521b d22e 6f58 7937 a97f 5534
00000010: 4c93 eb37 8c62 b536 fa76 ba36 a143 5336
00000020: ab89 0236 3f79 0533

exp_avg f4 [10, 10]
-0.00036183523 4.504569e-06 -0.0005786548 -0.00094899576 -0.0002771665 -0.00095111475 -0.0014050512 -0.0010653243
-0.0016024275 5.4900006e-06 1.7248494e-06 -2.3990575e-08 2.7933959e-06 4.9309647e-06 1.4578213e-06 4.988459e-06
6.925093e-06 5.581354e-06 8.375065e-06 -2.814549e-08 -4.1142688e-05 3.6320608e-07 -7.804731e-05 -8.49642e-05
-5.2785676e-06 -8.624131e-05 -0.00013882738 -8.41772e-05 -0.0001281403 6.939275e-07 -0.00022793433 3.164686e-06
-0.0003701274 -0.00065117376 -0.00019181256 -0.0006605762 -0.0009161013 -0.00073824305 -0.0011073634 3.175553e-06
-1.5589785e-06 2.1682109e-08 -2.524758e-06 -4.4563226e-06 -1.3174814e-06 -4.508393e-06 -6.2588097e-06 -5.044175e-06
-7.5691155e-06 2.5421286e-08 0.00035238374 -4.9119576e-06 0.0005701188 0.0010105555 0.000300095 0.0010270218
0.0014202208 0.0011478739 0.0017221743 -5.7666807e-06 7.474867e-05 -1.0395613e-06 0.00012105506 0.00021365628
6.316594e-05 0.00021615643 0.00030008476 0.0002418438 0.00036290433 -1.2184058e-06 -0.0003991842 5.5822225e-06
-0.0006473364 -0.0011452206 -0.00033997127 -0.0011620899 -0.0016077114 -0.0012999328 -0.0019500612 5.5598525e-06
0.00020641362 -2.874025e-06 0.00033419597 0.0005909142 0.00017505507 0.0005991004 0.0008302819 0.0006701098
0.001005418 -3.3716242e-06 -9.4232473e-07 1.3105425e-08 -1.5260887e-06 -2.6935181e-06 -7.96316e-07 -2.7250173e-06
-3.783056e-06 -3.0488432e-06 -4.57501e-06 1.5362236e-08
00000000: b4b4 bdb9 f425 9736 deb0 17ba 07c6 78ba
00000010: a850 91b9 3b54 79ba b229 b8ba 5aa2 8bba
00000020: 8b08 d2ba bf36 b836 6081 e735 d513 ceb2
00000030: 2d76 3b36 aa74 a536 5caa c335 8962 a736
00000040: 195e e836 7747 bb36 a182 0c37 96c4 f1b2
00000050: a090 2cb8 aafe c234 55ad a3b8 cf2e b2b8
00000060: 8d1e b1b6 73dc b4b8 3192 11b9 4a88 b0b8
00000070: 665d 06b9 5646 3a35 a801 6fb9 e460 5436
00000080: a90d c2b9 88b3 2aba 4b21 49b9 852a 2dba
00000090: 8426 70ba a786 41ba f324 91ba 961b 5536
000000a0: 183e d1b5 763f ba32 036f 29b6 8587 95b6
000000b0: 51d4 b0b5 cd46 97b6 c402 d2b6 2241 a9b6
000000c0: 35fa fdb6 005e da32 25c0 b839 65d1 a4b6
000000d0: 0674 153a 9e74 843a 1256 9d39 229d 863a
000000e0: b426 ba3a 4274 963a 95ba e13a 697f c1b6
000000f0: 63c2 9c38 0e87 8bb5 f1de fd38 ec08 6039
00000100: f577 8438 0da8 6239 b254 9d39 7397 7d39
00000110: 3244 be39 1b88 a3b5 9949 d1b9 ed4e bb36
00000120: 03b2 29ba 3a1b 96ba 2c3e b2b9 4451 98ba
00000130: d8b9 d2ba 8262 aaba 3299 ffba c58e ba36
00000140: bc70 5839 60df 40b6 0637 af39 95e7 1a3a
00000150: fd8e 3739 f30c 1d3a 46a7 593a 4faa 2f3a
00000160: 3bc8 833a 1044 62b6 10f4 7cb5 4526 6132
00000170: 02d4 ccb5 4ac2 34b6 6bc2 55b5 71df 36b6
00000180: 68e0 7db6 ba9a 4cb6 0983 99b6 eaf5 8332

exp_avg_sq f4 [10, 10]
5.261265e-06 6.376427e-10 1.4740418e-05 2.83731e-05 1.3486638e-06 2.3674627e-05 6.594088e-05 3.2642998e-05
7.326484e-05 1.268427e-09 1.9654622e-10 3.6915163e-14 5.14222e-10 1.5296561e-09 1.3296961e-10 1.5839491e-09
3.0868599e-09 1.971431e-09 4.4720125e-09 3.6154246e-14 1.6835262e-08 1.7689131e-12 5.4861548e-08 8.217821e-08
2.0292625e-09 8.57818e-08 2.0425828e-07 9.104904e-08 2.0809134e-07 3.9560998e-12 3.4413868e-06 6.4276673e-10
9.008903e-06 2.6704472e-05 2.3112332e-06 2.7639619e-05 5.39742e-05 3.4401026e-05 7.801067e-05 7.3074935e-10
1.591766e-10 2.9897234e-14 4.164592e-10 1.2388655e-09 1.0769776e-10 1.28288e-09 2.500065e-09 1.596731e-09
3.6219991e-09 2.9280072e-14 8.272914e-06 1.5542685e-09 2.1641943e-05 6.441241e-05 5.602699e-06 6.674007e-05
0.00012999825 8.305654e-05 0.00018840065 1.5222593e-09 3.6435668e-07 6.843602e-11 9.532875e-07 2.8358306e-06
2.4653374e-07 2.9366388e-06 5.7228153e-06 3.655099e-06 8.291114e-06 6.702204e-11 1.0498336e-05 1.9689224e-09
2.7456546e-05 8.162407e-05 7.087877e-06 8.445316e-05 0.0001647406 0.00010511952 0.00023847543 2.0118944e-09
2.8133438e-06 5.284925e-10 7.360354e-06 2.1900414e-05 1.9043989e-06 2.268537e-05 4.4198463e-05 2.8234075e-05
6.404466e-05 5.1759347e-10 5.7951e-11 1.08846995e-14 1.5161995e-10 4.5103565e-10 3.9210427e-11 4.670659e-10
9.1020513e-10 5.813338e-10 1.3186824e-09 1.0659879e-14
00000000: ec89 b036 1e46 2f30 9d4d 7737 c502 ee37
00000010: bc03 b535 e098 c637 be49 8a38 27ea 0838
00000020: c3a5 9938 cf54 ae30 d81a 582f 4940 2629
00000030: 2859 0d30 fd3b d230 9e33 122f 41b2 d930
00000040: 9d20 5431 c879 0731 3da8 9931 02d3 2229
00000050: 229d 9032 d0f3 f82b e9a0 6b33 f379 b033
00000060: 2a73 0b31 0b37 b833 1752 5b34 bd86 c333
00000070: b66f 5f34 6131 8b2c 93f2 6636 b0ae 3030
00000080: f224 1737 6b03 e037 af1a 1b36 a1db e737
00000090: 5b62 6238 d249 1038 a999 a338 eadd 4830
000000a0: 3b04 2f2f 2aa5 0629 6cf3 e42f b444 aa30
000000b0: 73d4 ec2e 5451 b030 9ccd 2b31 fa73 db30
000000c0: e2e6 7831 a0dd 0329 e5cb 0a37 f69d d530
000000d0: b88b b537 2615 8738 d1fe bb36 cdf6 8b38
000000e0: 2450 0839 a42e ae38 6a8d 4539 bd37 d130
000000f0: cd9c c334 0e7e 962e 6be5 7f35 334f 3e36
00000100: 575b 8434 1213 4536 9c06 c036 1f4a 7536
00000110: 101a 0b37 0e62 932e 0322 3037 a64d 0731
00000120: 7c52 e637 972d ab38 66d4 ed36 721c b138
00000130: 38be 2c39 9d73 dc38 430f 7a39 9f41 0a31
00000140: e1cc 3c36 5b45 1130 f6f8 f636 c8b6 b737
00000150: a69a ff35 764c be37 bd61 3938 37d8 ec37
00000160: b74f 8638 6746 0e30 07df 7e2e d114 4428
00000170: 39b5 262f a0f5 f72f 0473 2c2e d762 0030
00000180: fe31 7a30 bbcb 1f30 033d b530 0408 4028

exp_avg f4 [10]
-0.0003747534 1.8779596e-06 -3.9023536e-05 -0.00024841892 -1.6972671e-06 0.00038347402 8.1377024e-05 -0.0004379337
0.00022475277 -1.0258891e-06
00000000: 8d7a c4b9 330e fc35 34ad 23b8 393e 82b9
00000010: a7cd e3b5 030d c939 f5a8 aa38 779a e5b9
00000020: 9dab 6b39 48b1 89b5

exp_avg_sq f4 [10]
4.778191e-06 2.2640846e-10 1.633261e-08 3.9401466e-06 1.8337185e-10 9.529637e-06 4.197531e-07 1.2068822e-05
3.2409885e-06 6.6760986e-11
00000000: 5954 a036 51f0 782f ca4b 8c32 9a35 8436
00000010: 969e 492f 7be1 1f37 6d5a e134 327b 4a37
00000020: c27f 5936 18cf 922e

exp_avg f4 [1, 10]
0.00017478806 -1.9873753e-05 -3.3020951e-06 0.0014484064 -5.397994e-06 0.0028379243 0.0015991523 0.0017531663
0.0017896428 -1.1799379e-05
00000000: 5047 3739 8fb6 a6b7 9099 5db6 74d8 bd3a
00000010: 6a20 b5b6 78fc 393b a69a d13a 80ca e53a
00000020: 7392 ea3a f2f5 45b7

exp_avg_sq f4 [1, 10]
2.514704e-06 2.5440746e-08 1.9203135e-09 0.00013847025 1.7613626e-09 0.0005017635 0.00015942536 0.00020108708
0.0001976524 8.758931e-09
00000000: 49c2 2836 cb88 da32 83f6 0331 5332 1139
00000010: 7014 f230 c788 033a 6b2b 2739 e7da 5239
00000020: ea40 4f39 307a 1632

linear1.weight f4 [10, 50]
-0.17397052 -0.21425676 -0.11325146 -0.101193644 -0.10365022 0.057841845 0.14870638 0.17745268
0.18980642 -0.0715318 -0.18760031 -0.18471721 -0.076657616 0.059957936 -0.0045283334 0.051471412
0.043399498 0.37038046 0.13232133 0.4235244 -0.08390356 -0.115043856 -0.08314114 -0.05096208
-0.002538229 0.014307428 -0.011824838 0.052677345 -0.11112169 0.045987703 0.035792828 -0.13721734
-0.15768671 -0.08250202 -0.053149343 -0.0208777 0.073140405 -0.013100722 0.047995068 0.12393178
-0.13941684 -0.26653937 -0.18942587 -0.093126275 -0.1019505 0.20840915 0.10676245 -0.008423665
0.121246725 0.09959601 -0.038303297 -0.019623827 0.06049782 0.010250709 0.07565515 0.044628177
-0.013519497 0.055771008 0.20084876 0.0091791265 -0.07865093 0.0024757173 -0.065963104 -0.07713026
0.0553623 -0.012911529 -0.015962137 0.09687884 0.04284495 0.055839963 -0.1004949 -0.24184239
-0.12664792 0.022423351 0.014476067 0.003310657 0.10608101 0.15940838 0.108565874 0.013419677
-0.08456671 -0.0023665822 -0.03143461 -0.11503285 -0.036115054 0.024524149 -0.030112166 -0.07786232
0.029865492 0.16050045 -0.39737514 -0.06411089 -0.04125007 0.022413721 -0.017579755 -0.07364099
-0.043180484 0.09724431 0.08599366 0.15715316 -0.17701614 -0.11948439 0.07343019 -0.06321904
0.048861317 0.025337702 0.033528607 -0.013613975 0.045010902 0.08602036 -0.15217347 -0.060639802
-0.051921688 -0.055894155 0.0071561495 0.04303161 0.04279416 0.102799885 0.07766534 0.0037816577
-0.021362104 -0.014059766 -0.064300776 0.028444957 -0.027888883 0.0039231735 0.04831474 0.15085931
0.077510536 0.030146666 -0.18170908 0.05305013 0.01216933 -0.09920627 -0.06440984 0.039531592
0.0017291708 0.1014278 0.13506399 0.09594112 -0.16815355 -0.084785484 -0.12901883 -0.03174729
0.003937756 -0.015841208 -0.016556084 0.10374407 -0.02635524 -0.0032064894 0.20940717 0.01407049
0.036340386 -0.046096645 -0.108570844 0.08712725 0.12934601 0.09562594 0.11021671 -0.16802187
-0.17360121 -0.018785728 -0.13112661 0.062173843 -0.01443761 0.039048847 0.050763775 0.36067566
0.20114525 0.12218903 -0.08480589 -0.011017617 -0.09728654 -0.13199879 -0.013563876 0.07376515
0.0296272 0.15556571 0.25510785 0.30003405 -0.025588706 -0.23437715 -0.23837936 0.03292584
-0.10405767 -0.010635927 0.20833139 0.19872998 0.2698774 -0.038667277 -0.00028286074 -0.2997603
-0.22267884 -0.1795662 0.0679811 0.06346837 0.21407698 -0.0026448304 0.033947486 0.06825604
-0.3281563 -0.19301751 -0.14231983 0.027752664 -0.03706972 -0.09183651 0.057195913 0.06633417
0.106445394 0.41744503 -0.053023912 -0.0076197647 -0.009273802 -0.12468983 0.030534968 -0.0039331997
0.03443375 0.010003879 0.085026346 0.14580047 0.07001521 0.137746 -0.010357221 -0.012932876
-0.004439935 -0.037623405 -0.037937686 0.007348148 -0.009614398 -0.040060613 0.063639365 -0.29492933
-0.07484433 0.029936055 -0.004378845 -0.040240735 0.0016810318 0.11533099 0.14915633 -0.157715
0.038880467 -0.054380037 -0.045707397 0.008181365 -0.027343638 -0.15426199 -0.05976948 0.02372453
-0.0966387 -0.14191814 -0.19523694 -0.24465099 -0.0020341491 -0.029026307 0.02876265 0.08879411
00000000: 5425 32be 2066 5bbe 62f0 e7bd 9d3e cfbd
00000010: 9146 d4bd 92eb 6c3d 7c46 183e 28b6 353e
00000020: 9d5c 423e 447f 92bd 4c1a 40be 8226 3dbe
00000030: abfe 9cbd 7496 753d 6a62 94bb b0d3 523d
00000040: acc3 313d 82a2 bd3e 3e7f 073e 31d8 d83e
00000050: a1d5 abbd 1d9c ebbd e745 aabd 9dbd 50bd
00000060: 6b58 26bb b469 6a3c f7bc 41bc 33c4 573d
00000070: c593 e3bd 9a5d 3c3d 809b 123d b482 0cbe
00000080: a078 21be d2f6 a8bd 20b3 59bd b607 abbc
00000090: a3ca 953d 69a4 56bc 7a96 443d f2cf fd3d
000000a0: 4ac3 0ebe d977 88be dbf8 41be fdb8 bebd
000000b0: 6ccb d0bd 3569 553e 45a6 da3d 6903 0abc
000000c0: 3450 f83d fef8 cb3d ebe3 1cbd 26c2 a0bc
000000d0: 90cc 773d 97f2 273c 16f1 9a3d 09cc 363d
000000e0: e180 5dbc 2470 643d 4cab 4d3e 0c64 163c
000000f0: bd13 a1bd a53f 223b aa17 87bd 78f6 9dbd
00000100: 94c3 623d e18a 53bc 07c3 82bc 6a68 c63d
00000110: 307e 2f3d 72b8 643d 45d0 cdbd 88a5 77be
00000120: feaf 01be 2db1 b73c 072d 6d3c 9cf7 583b
00000130: 0041 d93d f33b 233e c957 de3d 34de 5b3c
00000140: 5031 adbd a918 1bbb 94c1 00bd 5896 ebbd
00000150: 61ed 13bd dee6 c83c caad f6bc 4876 9fbd
00000160: 7aa8 f43c 3b5a 243e c174 cbbe 924c 83bd
00000170: d5f5 28bd fb9c b73c 6b03 90bc 16d1 96bd
00000180: 05de 30bd 0628 c73d 721d b03d c2ec 203e
00000190: b843 35be 3bb4 f4bd 9162 963d fc78 81bd
000001a0: ce22 483d 0391 cf3c 4b55 093d 260d 5fbc
000001b0: 5a5d 383d 712b b03d 5dd3 1bbe 7161 78bd
000001c0: d6ab 54bd 45f1 64bd 227e ea3b ea41 303d
000001d0: ee48 2f3d bf88 d23d 010f 9f3d b0d5 773b
000001e0: 94ff aebc ef5a 66bc 20b0 83bd 6605 e93c
000001f0: 3a77 e4bc f78d 803b ade5 453d dd7a 1a3e
00000200: d8bd 9e3d 24f6 f63c f211 3abe 184b 593d
00000210: df61 473c a82c cbbd 4ee9 83bd e1eb 213d
00000220: 58a5 e23a 61b9 cf3d 374e 0a3e c77c c43d
00000230: 7230 2cbe 03a4 adbd 831d 04be 7209 02bd
00000240: 4b08 813b 6cc5 81bc a0a0 87bc c577 d43d
00000250: f2e6 d7bc f723 52bb d56e 563e ea87 663c
00000260: a8d9 143d d6cf 3cbd 645a debd c66f b23d
00000270: 4873 043e 88d7 c33d 4cb9 e13d ed0d 2cbe
00000280: 84c4 31be 87e4 99bc 0e46 06be 00aa 7e3d
00000290: ba8b 6cbc aff1 1f3d aded 4f3d 7baa b83e
000002a0: 05f9 4d3e 3e3e fa3d b6ae adbd 3c83 34bc
000002b0: 2a3e c7bd b12a 07be 053b 5ebc 2f12 973d
000002c0: beb4 f23c 9e4c 1f3e 7f9d 823e 109e 993e
000002d0: 689f d1bc 9000 70be b819 74be 3fdd 063d
000002e0: 301c d5bd 5042 2ebc d354 553e df7f 4b3e
000002f0: 5f2d 8a3e 9461 1ebd ed4c 94b9 2f7a 99be
00000300: ec05 64be 34e0 37be ad39 8b3d b4fb 813d
00000310: ff36 5b3e e454 2dbb 850c 0b3d d3c9 8b3d
00000320: 1a04 a8be 62a6 45be 4abc 11be 8e59 e33c
00000330: 6bd6 17bd c814 bcbd 4346 6a3d 36da 873d
00000340: 0b00 da3d 5bbb d53e 9a2f 59bd 38af f9bb
00000350: 25f1 17bc 625d ffbd 7824 fa3c 12e2 80bb
00000360: 670a 0d3d 4fe7 233c 4b22 ae3d b84c 153e
00000370: 2264 8f3d 4a0d 0d3e 55b1 29bc 6ae4 53bc
00000380: e07c 91bb 001b 1abd 8c64 1bbd bcc8 f03b
00000390: b585 1dbc 9916 24bd 5b55 823d fa00 97be
000003a0: fc47 99bd 753c f53c 6a7c 8fbb 78d3 24bd
000003b0: 1156 dc3a a732 ec3d 70bc 183e 0a80 21be
000003c0: 2041 1f3d 9abd 5ebd ae37 3bbd 220b 063c
000003d0: c4ff dfbc dbf6 1dbe d8d0 74bd f259 c23c
000003e0: 83ea c5bd fd52 11be 31ec 47be ca85 7abe
000003f0: 5c4f 05bb 94c8 edbc a69f eb3c b0d9 b53d

linear1.bias f4 [10]
2.6584222 2.0593498 3.0003219 2.5778987 2.6326773 3.6188786 3.1814394 2.7504675
3.5948262 3.853374
00000000: 9723 2a40 63cc 0340 4605 4040 4bfc 2440
00000010: c97d 2840 b59b 6740 b49c 4b40 a907 3040
00000020: a211 6640 ae9d 7640

linear2.weight f4 [10, 10]
-0.3187107 0.389223 -0.7726665 -0.29995593 0.89796406 -0.32849017 0.68936354 0.7894471
-1.2421715 1.8289196 -1.352912 1.2238374 -1.1024367 0.31316292 -1.7815272 1.2273324
1.4602952 0.26702794 1.0475276 -0.00029885428 0.08851831 -0.059015505 -0.14648442 0.05136758
-0.216473 -0.08642897 0.19896562 0.34790096 -0.2793455 0.02622072 0.34461907 0.57676005
0.35823584 0.17796652 0.6928766 -1.061285 0.5367325 -0.5877049 0.651194 0.3851791
0.0032493172 0.07591098 0.5172532 0.2163563 0.32590255 -0.7558342 0.08221288 -0.81564736
0.2555309 -0.0514155 -0.065266706 -0.0683755 -0.2631879 -0.25997692 -0.14231052 0.83961487
-0.2761694 0.3950476 0.008690697 -0.007371727 0.3790912 -1.110063 -1.134043 0.44071066
0.50591683 0.026242182 0.12352092 0.035647057 0.7684715 0.6231098 1.0212467 -0.45090544
-2.9627457 0.039313383 -0.9208119 1.0841659 0.11427311 0.41805676 0.8301162 0.6717706
-0.14407913 -0.7001779 0.8784695 -0.1570184 0.9526139 0.48049864 0.30820754 0.3234319
-0.15210372 0.28544262 -1.7936718 -0.8231309 0.39912847 0.9794331 0.13254783 -0.03133723
1.710491 0.13761234 0.62846977 1.1405525
00000000: 0d2e a3be 3d48 c73e 79cd 45bf d393 99be
00000010: f9e0 653f dd2f a8be 217a 303f 3519 4a3f
00000020: 7aff 9ebf 0a1a ea3f 382c adbf b4a6 9c3f
00000030: a51c 8dbf e456 a03e 1509 e4bf 3a19 9d3f
00000040: f4ea ba3f e3b7 883e 6215 863f 8baf 9cb9
00000050: 1649 b53d 3eba 71bd 0300 16be d066 523d
00000060: 19ab 5dbe ac01 b1bd a5bd 4b3e 1320 b23e
00000070: 6006 8fbe d6cc d63c e971 b03e 8ca6 133f
00000080: b06a b73e db3c 363e 5c60 313f 30d8 87bf
00000090: 4d67 093f d473 16bf a6b4 263f 3236 c53e
000000a0: 7ff2 543b 3777 9b3d b56a 043f 828c 5d3e
000000b0: b3dc a63e 5a7e 41bf 3a5f a83d 44ce 50bf
000000c0: f2d4 823e 0f99 52bd 8daa 85bd 7408 8cbd
000000d0: 90c0 86be b21b 85be d9b9 11be 00f1 563f
000000e0: 1366 8dbe ae43 ca3e 6d63 0e3c 878e f1bb
000000f0: 3e18 c23e 8b16 8ebf 5228 91bf d4a4 e13e
00000100: c483 013f d8f9 d63c 89f8 fc3d a602 123d
00000110: 8cba 443f 2084 1f3f 36b8 823f 14dd e6be
00000120: a09d 3dc0 1207 213d 54ba 6bbf f3c5 8a3f
00000130: 0508 ea3d 890b d63e 7f82 543f 28f9 2b3f
00000140: 7b89 13be dc3e 33bf 61e3 603f 6ec9 20be
00000150: 81de 733f eb03 f63e 61cd 9d3e de98 a53e
00000160: 14c1 1bbe 8925 923e 0a97 e5bf b5b8 52bf
00000170: 915a cc3e 21bc 7a3f 9eba 073e 785b 00bd
00000180: 5ef1 da3f 40ea 0c3e 65e3 203f a0fd 913f

linear2.bias f4 [10]
1.3775918 0.25372586 8.474973 5.2729287 20.08144 13.505941 2.946336 0.607262
-2.68009 1.8140476
00000000: ee54 b03f 5be8 813e 7d99 0741 d5bb a840
00000010: caa6 a041 5618 5841 c590 3c40 8675 1b3f
00000020: 9886 2bc0 b632 e83f

linear3.weight f4 [10, 10]
-0.17376241 0.8503139 1.1178173 -0.12965994 0.3205252 0.37906355 6.1527324 -0.15498812
-0.5580197 -0.8020697 2.9593856 0.7620423 1.2547433 -4.006702 -1.9365779 1.6562116
0.76166517 -1.7001388 0.06894188 0.078498416 -0.681541 1.4007766 1.2446384 0.22455718
1.5743164 1.4717801 -0.6005768 0.35988727 -1.3466078 1.3288463 1.2785528 2.4379559
4.591228 -0.2463895 3.541309 4.517386 2.7434704 -2.9156008 -1.1602663 -2.572581
-1.0390645 -1.899523 7.2440686 -0.55759895 6.9352174 8.329469 -2.420375 1.5381377
0.79065 0.8289436 -1.7798897 1.3320155 0.2925402 0.8386009 1.5214776 1.446946
1.5150728 -0.6804883 -0.94775796 -0.07045089 1.3521531 -0.6450601 2.5449507 1.5815537
2.8488405 2.2817783 -1.4783047 3.03947 0.45729947 0.7620928 0.15156189 -0.49238393
2.1246285 1.6536548 2.6391292 1.598347 -0.22828817 -1.9936073 -0.029564526 0.21282563
0.5941811 0.6794322 0.73417675 -0.888636 0.08992987 1.9111246 3.4691033 -4.080643
-0.84553367 0.7164571 2.1440756 -0.52506983 1.8091365 -1.6456994 -0.44263232 1.2711455
1.5427092 -1.6140293 1.2889178 -3.8294926
00000000: c6ee 31be 2cae 593f a314 8f3f 93c5 04be
00000010: e11b a43e 9e14 c23e 2fe3 c440 35b5 1ebe
00000020: 61da 0ebf 7154 4dbf 9366 3d40 3415 433f
00000030: 6e9b a03f e736 80c0 c9e1 f7bf befe d33f
00000040: 7dfc 423f 269e d9bf 6631 8d3d c7c3 a03d
00000050: 7979 2ebf a64c b33f 5050 9f3f 51f2 653e
00000060: 3383 c93f 4a63 bc3f 67bf 19bf 2543 b83e
00000070: a55d acbf a317 aa3f 9ea7 a33f 7807 1c40
00000080: 57eb 9240 874d 7cbe cfa4 6240 6d8e 9040
00000090: 0595 2f40 3499 3ac0 9b83 94bf 2ba5 24c0
000000a0: 1100 85bf 9223 f3bf 69cf e740 cebe 0ebf
000000b0: 4ded dd40 8145 0541 6de7 1ac0 b2e1 c43f
000000c0: 0a68 4a3f a635 543f 6dd3 e3bf 7c7f aa3f
000000d0: d4c7 953e 8cae 563f c7bf c23f 8735 b93f
000000e0: e8ed c13f 7b34 2ebf 44a0 72bf 8e48 90bd
000000f0: 5a13 ad3f a922 25bf 79e0 2240 5a70 ca3f
00000100: 6753 3640 a808 1240 1739 bdbf ad86 4240
00000110: 2823 ea3e 8418 433f 0a33 1b3e bf19 fcbe
00000120: eaf9 0740 f6aa d33f 7ee7 2840 a296 cc3f
00000130: 60c4 69be 862e ffbf 4e31 f2bc f6ee 593e
00000140: 411c 183f 45ef 2d3f 02f3 3b3f a67d 63bf
00000150: 272d b83d bb9f f43f ca05 5e40 a194 82c0
00000160: e574 58bf bc69 373f 8938 0940 fa6a 06bf
00000170: c991 e73f 47a6 d2bf b4a0 e2be e5b4 a23f
00000180: 7f77 c53f 8398 cebf 42fb a43f 6816 75c0

linear3.bias f4 [10]
2.4323049 -0.93449175 2.8767543 7.4126716 9.396131 1.9645045 5.2406254 3.8462443
2.51534 0.056720823
00000000: e2aa 1b40 da3a 6fbf be1c 3840 9b34 ed40
00000010: 8d56 1641 e274 fb3f 34b3 a740 de28 7640
00000020: 55fb 2040 1854 683d

linear4.weight f4 [1, 10]
-0.30168486 -0.0002332951 -0.5063027 -0.028498534 -0.05597675 0.60833716 0.386709 -0.32333004
0.311917 -0.00077418075
00000000: 7076 9abe ada0 74b9 0e9d 01bf c275 e9bc
00000010: e047 65bd fcbb 1b3f b9fe c53e 848b a5be
00000020: 96b3 9f3e 64f2 4aba
